…
ocalhost:8080/"},"executionInfo":{"status":"ok","timestamp":1649747473555,"user_tz":-420,"elapsed":52,"user":{"displayName":"Rara Yetrisia","userId":"12536329846657850718"}},"outputId":"ed61328e-f9a5-454f-da30-f5c642b50db4"},"source":["model.summary()"],"execution_count":13,"outputs":[{"output_type":"stream","name":"stdout","text":["Model: \"sequential\"\n","_________________________________________________________________\n"," Layer (type)                Output Shape              Param #   \n","=================================================================\n"," conv2d (Conv2D)             (None, 198, 198, 16)      448       \n","                                                                 \n"," max_pooling2d (MaxPooling2D  (None, 99, 99, 16)       0         \n"," )                                                               \n","                                                                 \n"," conv2d_1 (Conv2D)           (None, 97, 97, 32)        4640      \n","                                                                 \n"," max_pooling2d_1 (MaxPooling  (None, 48, 48, 32)       0         \n"," 2D)                                                             \n","                                                                 \n"," conv2d_2 (Conv2D)           (None, 46, 46, 64)        18496     \n","                                                                 \n"," max_pooling2d_2 (MaxPooling  (None, 23, 23, 64)       0         \n"," 2D)                                                             \n","                                                                 \n"," conv2d_3 (Conv2D)           (None, 21, 21, 64)        36928     \n","                                                                 \n"," max_pooling2d_3 (MaxPooling  (None, 10, 10, 64)       0         \n"," 2D)                                                             \n","                                                                 \n"," conv2d_4 (Conv2D)           (None, 8, 8, 32)          18464     \n","                                                                 \n"," max_pooling2d_4 (MaxPooling  (None, 4, 4, 32)         0         \n"," 2D)                                                             \n","                                                                 \n"," flatten (Flatten)           (None, 512)               0         \n","                                                                 \n"," dense (Dense)               (None, 512)               262656    \n","                                                                 \n"," dense_1 (Dense)             (None, 1)                 513       \n","                                                                 \n","=================================================================\n","Total params: 342,145\n","Trainable params: 342,145\n","Non-trainable params: 0\n","_________________________________________________________________\n"]}]},{"cell_type":"markdown","metadata":{"id":"DmtkTn06pKxF"},"source":["Kolom \"output shape\" 
…
